…
Namespace(SGD=False, adam=False, alpha=0.0, beta=1.0, cached=False, cpu=False, dataset='genius', decay_rate=1.0, delta=0.0, directed=False, display_step=1, dropout=0.5, epochs=500, exponent=3.0, gamma=0.0, gat_heads=8, gcn2_alpha=0.1, gpr_alpha=0.1, hidden_channels=256, hops=1, inner_activation=False, inner_dropout=False, jk_type='max', link_init_layers_A=1, link_init_layers_X=1, lp_alpha=0.1, lr=0.01, method='linkx', no_bn=False, norm_func_id=2, norm_layers=1, num_layers=2, num_mlp_layers=1, orders=1, orders_func_id=2, print_prop=False, rand_split=False, rocauc=False, runs=5, sampling=False, sub_dataset='', theta=0.5, train_prop=0.5, valid_prop=0.25, weight_decay=0.001)
num nodes 421961 | num classes 2 | num node feats 12
MODEL: LINKX(
  (mlpA): MLP(
    (lins): ModuleList(
      (0): Linear(in_features=421961, out_features=256, bias=True)
    )
    (bns): ModuleList()
  )
  (mlpX): MLP(
    (lins): ModuleList(
      (0): Linear(in_features=12, out_features=256, bias=True)
    )
    (bns): ModuleList()
  )
  (W): Linear(in_features=512, out_features=256, bias=True)
  (mlp_final): MLP(
    (lins): ModuleList(
      (0): Linear(in_features=256, out_features=256, bias=True)
      (1): Linear(in_features=256, out_features=2, bias=True)
    )
    (bns): ModuleList(
      (0): BatchNorm1d(256, eps=1e-05, momentum=0.1, affine=True, track_running_stats=True)
    )
  )
)
Epoch: 00, Loss: 0.7105, Train: 87.33%, Valid: 86.95%, Test: 87.18%, Time: 0.6356
Epoch: 01, Loss: 0.5950, Train: 87.86%, Valid: 87.06%, Test: 87.22%, Time: 0.5661
Epoch: 02, Loss: 0.5470, Train: 88.26%, Valid: 87.30%, Test: 87.36%, Time: 0.5649
Epoch: 03, Loss: 0.5172, Train: 88.70%, Valid: 87.61%, Test: 87.69%, Time: 0.5635
…
Namespace(SGD=False, adam=False, alpha=0.0, beta=1.0, cached=False, cpu=False, dataset='genius', decay_rate=1.0, delta=0.0, directed=False, display_step=1, dropout=0.5, epochs=500, exponent=3.0, gamma=0.0, gat_heads=8, gcn2_alpha=0.1, gpr_alpha=0.1, hidden_channels=128, hops=1, inner_activation=False, inner_dropout=False, jk_type='max', link_init_layers_A=1, link_init_layers_X=1, lp_alpha=0.1, lr=0.01, method='linkx', no_bn=False, norm_func_id=2, norm_layers=1, num_layers=2, num_mlp_layers=1, orders=1, orders_func_id=2, print_prop=False, rand_split=False, rocauc=False, runs=5, sampling=False, sub_dataset='', theta=0.5, train_prop=0.5, valid_prop=0.25, weight_decay=0.001)
num nodes 421961 | num classes 2 | num node feats 12
MODEL: LINKX(
  (mlpA): MLP(
    (lins): ModuleList(
      (0): Linear(in_features=421961, out_features=128, bias=True)
    )
    (bns): ModuleList()
  )
  (mlpX): MLP(
    (lins): ModuleList(
      (0): Linear(in_features=12, out_features=128, bias=True)
    )
    (bns): ModuleList()
  )
  (W): Linear(in_features=256, out_features=128, bias=True)
  (mlp_final): MLP(
    (lins): ModuleList(
      (0): Linear(in_features=128, out_features=128, bias=True)
      (1): Linear(in_features=128, out_features=2, bias=True)
    )
    (bns): ModuleList(
      (0): BatchNorm1d(128, eps=1e-05, momentum=0.1, affine=True, track_running_stats=True)
    )
  )
)
Epoch: 00, Loss: 0.7192, Train: 87.15%, Valid: 86.72%, Test: 86.79%, Time: 0.3567
Epoch: 01, Loss: 0.6695, Train: 18.80%, Valid: 18.28%, Test: 18.32%, Time: 0.3117
Epoch: 02, Loss: 0.6341, Train: 86.83%, Valid: 86.36%, Test: 86.64%, Time: 0.3124
Epoch: 03, Loss: 0.5885, Train: 87.94%, Valid: 87.09%, Test: 87.27%, Time: 0.3110
…
Namespace(SGD=False, adam=False, alpha=0.0, beta=1.0, cached=False, cpu=False, dataset='genius', decay_rate=1.0, delta=0.0, directed=False, display_step=1, dropout=0.5, epochs=500, exponent=3.0, gamma=0.0, gat_heads=8, gcn2_alpha=0.1, gpr_alpha=0.1, hidden_channels=32, hops=1, inner_activation=False, inner_dropout=False, jk_type='max', link_init_layers_A=1, link_init_layers_X=1, lp_alpha=0.1, lr=0.01, method='linkx', no_bn=False, norm_func_id=2, norm_layers=1, num_layers=2, num_mlp_layers=1, orders=1, orders_func_id=2, print_prop=False, rand_split=False, rocauc=False, runs=5, sampling=False, sub_dataset='', theta=0.5, train_prop=0.5, valid_prop=0.25, weight_decay=0.001)
num nodes 421961 | num classes 2 | num node feats 12
MODEL: LINKX(
  (mlpA): MLP(
    (lins): ModuleList(
      (0): Linear(in_features=421961, out_features=32, bias=True)
    )
    (bns): ModuleList()
  )
  (mlpX): MLP(
    (lins): ModuleList(
      (0): Linear(in_features=12, out_features=32, bias=True)
    )
    (bns): ModuleList()
  )
  (W): Linear(in_features=64, out_features=32, bias=True)
  (mlp_final): MLP(
    (lins): ModuleList(
      (0): Linear(in_features=32, out_features=32, bias=True)
      (1): Linear(in_features=32, out_features=2, bias=True)
    )
    (bns): ModuleList(
      (0): BatchNorm1d(32, eps=1e-05, momentum=0.1, affine=True, track_running_stats=True)
    )
  )
)
Epoch: 00, Loss: 0.7100, Train: 87.18%, Valid: 87.00%, Test: 87.08%, Time: 0.1899
Epoch: 01, Loss: 0.6785, Train: 89.35%, Valid: 88.84%, Test: 88.94%, Time: 0.1633
Epoch: 02, Loss: 0.6575, Train: 89.48%, Valid: 88.87%, Test: 88.97%, Time: 0.1624
Epoch: 03, Loss: 0.6366, Train: 88.63%, Valid: 87.98%, Test: 88.08%, Time: 0.1626
…
Namespace(SGD=False, adam=False, alpha=0.0, beta=1.0, cached=False, cpu=False, dataset='genius', decay_rate=1.0, delta=0.0, directed=False, display_step=1, dropout=0.5, epochs=500, exponent=3.0, gamma=0.0, gat_heads=8, gcn2_alpha=0.1, gpr_alpha=0.1, hidden_channels=16, hops=1, inner_activation=False, inner_dropout=False, jk_type='max', link_init_layers_A=1, link_init_layers_X=1, lp_alpha=0.1, lr=0.01, method='linkx', no_bn=False, norm_func_id=2, norm_layers=1, num_layers=2, num_mlp_layers=1, orders=1, orders_func_id=2, print_prop=False, rand_split=False, rocauc=False, runs=5, sampling=False, sub_dataset='', theta=0.5, train_prop=0.5, valid_prop=0.25, weight_decay=0.001)
num nodes 421961 | num classes 2 | num node feats 12
MODEL: LINKX(
  (mlpA): MLP(
    (lins): ModuleList(
      (0): Linear(in_features=421961, out_features=16, bias=True)
    )
    (bns): ModuleList()
  )
  (mlpX): MLP(
    (lins): ModuleList(
      (0): Linear(in_features=12, out_features=16, bias=True)
    )
    (bns): ModuleList()
  )
  (W): Linear(in_features=32, out_features=16, bias=True)
  (mlp_final): MLP(
    (lins): ModuleList(
      (0): Linear(in_features=16, out_features=16, bias=True)
      (1): Linear(in_features=16, out_features=2, bias=True)
    )
    (bns): ModuleList(
      (0): BatchNorm1d(16, eps=1e-05, momentum=0.1, affine=True, track_running_stats=True)
    )
  )
)
Epoch: 00, Loss: 0.6970, Train: 89.90%, Valid: 88.99%, Test: 89.16%, Time: 0.1529
Epoch: 01, Loss: 0.6651, Train: 90.21%, Valid: 89.26%, Test: 89.48%, Time: 0.1407
Epoch: 02, Loss: 0.6334, Train: 88.40%, Valid: 87.58%, Test: 87.80%, Time: 0.1560
Epoch: 03, Loss: 0.6088, Train: 90.06%, Valid: 89.09%, Test: 89.29%, Time: 0.1410
…
Namespace(SGD=False, adam=False, alpha=0.0, beta=1.0, cached=False, cpu=False, dataset='genius', decay_rate=1.0, delta=0.0, directed=False, display_step=1, dropout=0.5, epochs=500, exponent=3.0, gamma=0.0, gat_heads=8, gcn2_alpha=0.1, gpr_alpha=0.1, hidden_channels=256, hops=1, inner_activation=False, inner_dropout=False, jk_type='max', link_init_layers_A=1, link_init_layers_X=1, lp_alpha=0.1, lr=0.01, method='linkx', no_bn=False, norm_func_id=2, norm_layers=1, num_layers=3, num_mlp_layers=1, orders=1, orders_func_id=2, print_prop=False, rand_split=False, rocauc=False, runs=5, sampling=False, sub_dataset='', theta=0.5, train_prop=0.5, valid_prop=0.25, weight_decay=0.001)
num nodes 421961 | num classes 2 | num node feats 12
MODEL: LINKX(
  (mlpA): MLP(
    (lins): ModuleList(
      (0): Linear(in_features=421961, out_features=256, bias=True)
    )
    (bns): ModuleList()
  )
  (mlpX): MLP(
    (lins): ModuleList(
      (0): Linear(in_features=12, out_features=256, bias=True)
    )
    (bns): ModuleList()
  )
  (W): Linear(in_features=512, out_features=256, bias=True)
  (mlp_final): MLP(
    (lins): ModuleList(
      (0): Linear(in_features=256, out_features=256, bias=True)
      (1): Linear(in_features=256, out_features=256, bias=True)
      (2): Linear(in_features=256, out_features=2, bias=True)
    )
    (bns): ModuleList(
      (0): BatchNorm1d(256, eps=1e-05, momentum=0.1, affine=True, track_running_stats=True)
      (1): BatchNorm1d(256, eps=1e-05, momentum=0.1, affine=True, track_running_stats=True)
    )
  )
)
Epoch: 00, Loss: 0.7040, Train: 17.09%, Valid: 17.06%, Test: 17.17%, Time: 0.6689
Epoch: 01, Loss: 0.5941, Train: 48.47%, Valid: 46.90%, Test: 47.24%, Time: 0.5942
Epoch: 02, Loss: 0.6060, Train: 19.51%, Valid: 18.57%, Test: 18.70%, Time: 0.5978
Epoch: 03, Loss: 0.5882, Train: 89.28%, Valid: 88.37%, Test: 88.43%, Time: 0.6009
…
Namespace(SGD=False, adam=False, alpha=0.0, beta=1.0, cached=False, cpu=False, dataset='genius', decay_rate=1.0, delta=0.0, directed=False, display_step=1, dropout=0.5, epochs=500, exponent=3.0, gamma=0.0, gat_heads=8, gcn2_alpha=0.1, gpr_alpha=0.1, hidden_channels=128, hops=1, inner_activation=False, inner_dropout=False, jk_type='max', link_init_layers_A=1, link_init_layers_X=1, lp_alpha=0.1, lr=0.01, method='linkx', no_bn=False, norm_func_id=2, norm_layers=1, num_layers=3, num_mlp_layers=1, orders=1, orders_func_id=2, print_prop=False, rand_split=False, rocauc=False, runs=5, sampling=False, sub_dataset='', theta=0.5, train_prop=0.5, valid_prop=0.25, weight_decay=0.001)
num nodes 421961 | num classes 2 | num node feats 12
MODEL: LINKX(
  (mlpA): MLP(
    (lins): ModuleList(
      (0): Linear(in_features=421961, out_features=128, bias=True)
    )
    (bns): ModuleList()
  )
  (mlpX): MLP(
    (lins): ModuleList(
      (0): Linear(in_features=12, out_features=128, bias=True)
    )
    (bns): ModuleList()
  )
  (W): Linear(in_features=256, out_features=128, bias=True)
  (mlp_final): MLP(
    (lins): ModuleList(
      (0): Linear(in_features=128, out_features=128, bias=True)
      (1): Linear(in_features=128, out_features=128, bias=True)
      (2): Linear(in_features=128, out_features=2, bias=True)
    )
    (bns): ModuleList(
      (0): BatchNorm1d(128, eps=1e-05, momentum=0.1, affine=True, track_running_stats=True)
      (1): BatchNorm1d(128, eps=1e-05, momentum=0.1, affine=True, track_running_stats=True)
    )
  )
)
Epoch: 00, Loss: 0.7162, Train: 86.17%, Valid: 85.92%, Test: 86.00%, Time: 0.3798
Epoch: 01, Loss: 0.6539, Train: 89.97%, Valid: 89.41%, Test: 89.59%, Time: 0.3362
Epoch: 02, Loss: 0.5960, Train: 90.14%, Valid: 89.36%, Test: 89.52%, Time: 0.3240
Epoch: 03, Loss: 0.5840, Train: 65.52%, Valid: 64.54%, Test: 65.13%, Time: 0.3240
…
Namespace(SGD=False, adam=False, alpha=0.0, beta=1.0, cached=False, cpu=False, dataset='genius', decay_rate=1.0, delta=0.0, directed=False, display_step=1, dropout=0.5, epochs=500, exponent=3.0, gamma=0.0, gat_heads=8, gcn2_alpha=0.1, gpr_alpha=0.1, hidden_channels=32, hops=1, inner_activation=False, inner_dropout=False, jk_type='max', link_init_layers_A=1, link_init_layers_X=1, lp_alpha=0.1, lr=0.01, method='linkx', no_bn=False, norm_func_id=2, norm_layers=1, num_layers=3, num_mlp_layers=1, orders=1, orders_func_id=2, print_prop=False, rand_split=False, rocauc=False, runs=5, sampling=False, sub_dataset='', theta=0.5, train_prop=0.5, valid_prop=0.25, weight_decay=0.001)
num nodes 421961 | num classes 2 | num node feats 12
MODEL: LINKX(
  (mlpA): MLP(
    (lins): ModuleList(
      (0): Linear(in_features=421961, out_features=32, bias=True)
    )
    (bns): ModuleList()
  )
  (mlpX): MLP(
    (lins): ModuleList(
      (0): Linear(in_features=12, out_features=32, bias=True)
    )
    (bns): ModuleList()
  )
  (W): Linear(in_features=64, out_features=32, bias=True)
  (mlp_final): MLP(
    (lins): ModuleList(
      (0): Linear(in_features=32, out_features=32, bias=True)
      (1): Linear(in_features=32, out_features=32, bias=True)
      (2): Linear(in_features=32, out_features=2, bias=True)
    )
    (bns): ModuleList(
      (0): BatchNorm1d(32, eps=1e-05, momentum=0.1, affine=True, track_running_stats=True)
      (1): BatchNorm1d(32, eps=1e-05, momentum=0.1, affine=True, track_running_stats=True)
    )
  )
)
Epoch: 00, Loss: 0.7072, Train: 80.57%, Valid: 80.60%, Test: 80.99%, Time: 0.3685
Epoch: 01, Loss: 0.6488, Train: 89.47%, Valid: 88.87%, Test: 89.03%, Time: 0.1859
Epoch: 02, Loss: 0.6187, Train: 89.34%, Valid: 88.27%, Test: 88.37%, Time: 0.1859
Epoch: 03, Loss: 0.5946, Train: 89.90%, Valid: 88.78%, Test: 88.78%, Time: 0.1866
…
Namespace(SGD=False, adam=False, alpha=0.0, beta=1.0, cached=False, cpu=False, dataset='genius', decay_rate=1.0, delta=0.0, directed=False, display_step=1, dropout=0.5, epochs=500, exponent=3.0, gamma=0.0, gat_heads=8, gcn2_alpha=0.1, gpr_alpha=0.1, hidden_channels=16, hops=1, inner_activation=False, inner_dropout=False, jk_type='max', link_init_layers_A=1, link_init_layers_X=1, lp_alpha=0.1, lr=0.01, method='linkx', no_bn=False, norm_func_id=2, norm_layers=1, num_layers=3, num_mlp_layers=1, orders=1, orders_func_id=2, print_prop=False, rand_split=False, rocauc=False, runs=5, sampling=False, sub_dataset='', theta=0.5, train_prop=0.5, valid_prop=0.25, weight_decay=0.001)
num nodes 421961 | num classes 2 | num node feats 12
MODEL: LINKX(
  (mlpA): MLP(
    (lins): ModuleList(
      (0): Linear(in_features=421961, out_features=16, bias=True)
    )
    (bns): ModuleList()
  )
  (mlpX): MLP(
    (lins): ModuleList(
      (0): Linear(in_features=12, out_features=16, bias=True)
    )
    (bns): ModuleList()
  )
  (W): Linear(in_features=32, out_features=16, bias=True)
  (mlp_final): MLP(
    (lins): ModuleList(
      (0): Linear(in_features=16, out_features=16, bias=True)
      (1): Linear(in_features=16, out_features=16, bias=True)
      (2): Linear(in_features=16, out_features=2, bias=True)
    )
    (bns): ModuleList(
      (0): BatchNorm1d(16, eps=1e-05, momentum=0.1, affine=True, track_running_stats=True)
      (1): BatchNorm1d(16, eps=1e-05, momentum=0.1, affine=True, track_running_stats=True)
    )
  )
)
Epoch: 00, Loss: 0.7492, Train: 83.21%, Valid: 83.42%, Test: 83.64%, Time: 0.1798
Epoch: 01, Loss: 0.7360, Train: 83.93%, Valid: 83.79%, Test: 83.91%, Time: 0.1590
Epoch: 02, Loss: 0.7250, Train: 85.92%, Valid: 85.24%, Test: 85.43%, Time: 0.1353
Epoch: 03, Loss: 0.7155, Train: 87.63%, Valid: 87.42%, Test: 87.54%, Time: 0.1358
…
