…
Namespace(SGD=False, adam=False, alpha=0.0, beta=1.0, cached=False, cpu=False, dataset='snap-patents', decay_rate=1.0, delta=0.0, directed=True, display_step=1, dropout=0.5, epochs=500, exponent=3.0, gamma=0.0, gat_heads=8, gcn2_alpha=0.1, gpr_alpha=0.1, hidden_channels=16, hops=1, inner_activation=False, inner_dropout=False, jk_type='max', link_init_layers_A=1, link_init_layers_X=1, lp_alpha=0.1, lr=0.01, method='linkx', no_bn=False, norm_func_id=2, norm_layers=1, num_layers=2, num_mlp_layers=1, orders=1, orders_func_id=2, print_prop=False, rand_split=False, rocauc=False, runs=5, sampling=False, sub_dataset='', theta=0.5, train_prop=0.5, valid_prop=0.25, weight_decay=0.001)
num nodes 2923922 | num classes 5 | num node feats 269
MODEL: LINKX(
  (mlpA): MLP(
    (lins): ModuleList(
      (0): Linear(in_features=2923922, out_features=16, bias=True)
    )
    (bns): ModuleList()
  )
  (mlpX): MLP(
    (lins): ModuleList(
      (0): Linear(in_features=269, out_features=16, bias=True)
    )
    (bns): ModuleList()
  )
  (W): Linear(in_features=32, out_features=16, bias=True)
  (mlp_final): MLP(
    (lins): ModuleList(
      (0): Linear(in_features=16, out_features=16, bias=True)
      (1): Linear(in_features=16, out_features=5, bias=True)
    )
    (bns): ModuleList(
      (0): BatchNorm1d(16, eps=1e-05, momentum=0.1, affine=True, track_running_stats=True)
    )
  )
)
Epoch: 00, Loss: 1.7843, Train: 19.68%, Valid: 19.47%, Test: 19.41%, Time: 0.4521
Epoch: 01, Loss: 1.6267, Train: 30.03%, Valid: 26.51%, Test: 26.52%, Time: 0.4129
Epoch: 02, Loss: 1.5236, Train: 36.78%, Valid: 33.21%, Test: 33.28%, Time: 0.4128
Epoch: 03, Loss: 1.4416, Train: 29.75%, Valid: 27.62%, Test: 27.67%, Time: 0.4139
…
Namespace(SGD=False, adam=False, alpha=0.0, beta=1.0, cached=False, cpu=False, dataset='snap-patents', decay_rate=1.0, delta=0.0, directed=True, display_step=1, dropout=0.5, epochs=500, exponent=3.0, gamma=0.0, gat_heads=8, gcn2_alpha=0.1, gpr_alpha=0.1, hidden_channels=32, hops=1, inner_activation=False, inner_dropout=False, jk_type='max', link_init_layers_A=1, link_init_layers_X=1, lp_alpha=0.1, lr=0.01, method='linkx', no_bn=False, norm_func_id=2, norm_layers=1, num_layers=2, num_mlp_layers=1, orders=1, orders_func_id=2, print_prop=False, rand_split=False, rocauc=False, runs=5, sampling=False, sub_dataset='', theta=0.5, train_prop=0.5, valid_prop=0.25, weight_decay=0.001)
num nodes 2923922 | num classes 5 | num node feats 269
MODEL: LINKX(
  (mlpA): MLP(
    (lins): ModuleList(
      (0): Linear(in_features=2923922, out_features=32, bias=True)
    )
    (bns): ModuleList()
  )
  (mlpX): MLP(
    (lins): ModuleList(
      (0): Linear(in_features=269, out_features=32, bias=True)
    )
    (bns): ModuleList()
  )
  (W): Linear(in_features=64, out_features=32, bias=True)
  (mlp_final): MLP(
    (lins): ModuleList(
      (0): Linear(in_features=32, out_features=32, bias=True)
      (1): Linear(in_features=32, out_features=5, bias=True)
    )
    (bns): ModuleList(
      (0): BatchNorm1d(32, eps=1e-05, momentum=0.1, affine=True, track_running_stats=True)
    )
  )
)
Epoch: 00, Loss: 1.7915, Train: 23.38%, Valid: 22.48%, Test: 22.55%, Time: 0.6327
Epoch: 01, Loss: 1.4866, Train: 30.54%, Valid: 27.58%, Test: 27.62%, Time: 0.5391
Epoch: 02, Loss: 1.3295, Train: 35.48%, Valid: 30.78%, Test: 30.87%, Time: 0.5348
Epoch: 03, Loss: 1.1987, Train: 42.68%, Valid: 34.48%, Test: 34.54%, Time: 0.5361
…
Namespace(SGD=False, adam=False, alpha=0.0, beta=1.0, cached=False, cpu=False, dataset='snap-patents', decay_rate=1.0, delta=0.0, directed=True, display_step=1, dropout=0.5, epochs=500, exponent=3.0, gamma=0.0, gat_heads=8, gcn2_alpha=0.1, gpr_alpha=0.1, hidden_channels=128, hops=1, inner_activation=False, inner_dropout=False, jk_type='max', link_init_layers_A=1, link_init_layers_X=1, lp_alpha=0.1, lr=0.01, method='linkx', no_bn=False, norm_func_id=2, norm_layers=1, num_layers=2, num_mlp_layers=1, orders=1, orders_func_id=2, print_prop=False, rand_split=False, rocauc=False, runs=5, sampling=False, sub_dataset='', theta=0.5, train_prop=0.5, valid_prop=0.25, weight_decay=0.001)
num nodes 2923922 | num classes 5 | num node feats 269
MODEL: LINKX(
  (mlpA): MLP(
    (lins): ModuleList(
      (0): Linear(in_features=2923922, out_features=128, bias=True)
    )
    (bns): ModuleList()
  )
  (mlpX): MLP(
    (lins): ModuleList(
      (0): Linear(in_features=269, out_features=128, bias=True)
    )
    (bns): ModuleList()
  )
  (W): Linear(in_features=256, out_features=128, bias=True)
  (mlp_final): MLP(
    (lins): ModuleList(
      (0): Linear(in_features=128, out_features=128, bias=True)
      (1): Linear(in_features=128, out_features=5, bias=True)
    )
    (bns): ModuleList(
      (0): BatchNorm1d(128, eps=1e-05, momentum=0.1, affine=True, track_running_stats=True)
    )
  )
)
Epoch: 00, Loss: 1.7810, Train: 32.03%, Valid: 29.91%, Test: 29.85%, Time: 1.5824
Epoch: 01, Loss: 1.5623, Train: 39.58%, Valid: 34.97%, Test: 35.02%, Time: 1.5135
Epoch: 02, Loss: 1.2331, Train: 52.63%, Valid: 42.42%, Test: 42.57%, Time: 1.5143
Epoch: 03, Loss: 1.0190, Train: 62.92%, Valid: 46.85%, Test: 46.95%, Time: 1.5181
…
Namespace(SGD=False, adam=False, alpha=0.0, beta=1.0, cached=False, cpu=False, dataset='snap-patents', decay_rate=1.0, delta=0.0, directed=True, display_step=1, dropout=0.5, epochs=500, exponent=3.0, gamma=0.0, gat_heads=8, gcn2_alpha=0.1, gpr_alpha=0.1, hidden_channels=256, hops=1, inner_activation=False, inner_dropout=False, jk_type='max', link_init_layers_A=1, link_init_layers_X=1, lp_alpha=0.1, lr=0.01, method='linkx', no_bn=False, norm_func_id=2, norm_layers=1, num_layers=2, num_mlp_layers=1, orders=1, orders_func_id=2, print_prop=False, rand_split=False, rocauc=False, runs=5, sampling=False, sub_dataset='', theta=0.5, train_prop=0.5, valid_prop=0.25, weight_decay=0.001)
num nodes 2923922 | num classes 5 | num node feats 269
MODEL: LINKX(
  (mlpA): MLP(
    (lins): ModuleList(
      (0): Linear(in_features=2923922, out_features=256, bias=True)
    )
    (bns): ModuleList()
  )
  (mlpX): MLP(
    (lins): ModuleList(
      (0): Linear(in_features=269, out_features=256, bias=True)
    )
    (bns): ModuleList()
  )
  (W): Linear(in_features=512, out_features=256, bias=True)
  (mlp_final): MLP(
    (lins): ModuleList(
      (0): Linear(in_features=256, out_features=256, bias=True)
      (1): Linear(in_features=256, out_features=5, bias=True)
    )
    (bns): ModuleList(
      (0): BatchNorm1d(256, eps=1e-05, momentum=0.1, affine=True, track_running_stats=True)
    )
  )
)
Epoch: 00, Loss: 1.8154, Train: 26.02%, Valid: 25.62%, Test: 25.54%, Time: 3.5732
Traceback (most recent call last):
  File "main.py", line 307, in <module>
    out = model(dataset)
  File "/usr/local/lib/python3.6/dist-packages/torch/nn/modules/module.py", line 1102, in _call_impl
    return forward_call(*input, **kwargs)
…
Namespace(SGD=False, adam=False, alpha=0.0, beta=1.0, cached=False, cpu=False, dataset='snap-patents', decay_rate=1.0, delta=0.0, directed=True, display_step=1, dropout=0.5, epochs=500, exponent=3.0, gamma=0.0, gat_heads=8, gcn2_alpha=0.1, gpr_alpha=0.1, hidden_channels=16, hops=1, inner_activation=False, inner_dropout=False, jk_type='max', link_init_layers_A=1, link_init_layers_X=1, lp_alpha=0.1, lr=0.01, method='linkx', no_bn=False, norm_func_id=2, norm_layers=1, num_layers=3, num_mlp_layers=1, orders=1, orders_func_id=2, print_prop=False, rand_split=False, rocauc=False, runs=5, sampling=False, sub_dataset='', theta=0.5, train_prop=0.5, valid_prop=0.25, weight_decay=0.001)
num nodes 2923922 | num classes 5 | num node feats 269
MODEL: LINKX(
  (mlpA): MLP(
    (lins): ModuleList(
      (0): Linear(in_features=2923922, out_features=16, bias=True)
    )
    (bns): ModuleList()
  )
  (mlpX): MLP(
    (lins): ModuleList(
      (0): Linear(in_features=269, out_features=16, bias=True)
    )
    (bns): ModuleList()
  )
  (W): Linear(in_features=32, out_features=16, bias=True)
  (mlp_final): MLP(
    (lins): ModuleList(
      (0): Linear(in_features=16, out_features=16, bias=True)
      (1): Linear(in_features=16, out_features=16, bias=True)
      (2): Linear(in_features=16, out_features=5, bias=True)
    )
    (bns): ModuleList(
      (0): BatchNorm1d(16, eps=1e-05, momentum=0.1, affine=True, track_running_stats=True)
      (1): BatchNorm1d(16, eps=1e-05, momentum=0.1, affine=True, track_running_stats=True)
    )
  )
)
Epoch: 00, Loss: 1.9267, Train: 18.82%, Valid: 18.92%, Test: 18.84%, Time: 0.4348
Epoch: 01, Loss: 1.7547, Train: 18.86%, Valid: 18.96%, Test: 18.88%, Time: 0.4137
Epoch: 02, Loss: 1.6650, Train: 19.12%, Valid: 19.17%, Test: 19.11%, Time: 0.4313
Epoch: 03, Loss: 1.6147, Train: 20.62%, Valid: 19.94%, Test: 19.93%, Time: 0.4258
…
Namespace(SGD=False, adam=False, alpha=0.0, beta=1.0, cached=False, cpu=False, dataset='snap-patents', decay_rate=1.0, delta=0.0, directed=True, display_step=1, dropout=0.5, epochs=500, exponent=3.0, gamma=0.0, gat_heads=8, gcn2_alpha=0.1, gpr_alpha=0.1, hidden_channels=32, hops=1, inner_activation=False, inner_dropout=False, jk_type='max', link_init_layers_A=1, link_init_layers_X=1, lp_alpha=0.1, lr=0.01, method='linkx', no_bn=False, norm_func_id=2, norm_layers=1, num_layers=3, num_mlp_layers=1, orders=1, orders_func_id=2, print_prop=False, rand_split=False, rocauc=False, runs=5, sampling=False, sub_dataset='', theta=0.5, train_prop=0.5, valid_prop=0.25, weight_decay=0.001)
num nodes 2923922 | num classes 5 | num node feats 269
MODEL: LINKX(
  (mlpA): MLP(
    (lins): ModuleList(
      (0): Linear(in_features=2923922, out_features=32, bias=True)
    )
    (bns): ModuleList()
  )
  (mlpX): MLP(
    (lins): ModuleList(
      (0): Linear(in_features=269, out_features=32, bias=True)
    )
    (bns): ModuleList()
  )
  (W): Linear(in_features=64, out_features=32, bias=True)
  (mlp_final): MLP(
    (lins): ModuleList(
      (0): Linear(in_features=32, out_features=32, bias=True)
      (1): Linear(in_features=32, out_features=32, bias=True)
      (2): Linear(in_features=32, out_features=5, bias=True)
    )
    (bns): ModuleList(
      (0): BatchNorm1d(32, eps=1e-05, momentum=0.1, affine=True, track_running_stats=True)
      (1): BatchNorm1d(32, eps=1e-05, momentum=0.1, affine=True, track_running_stats=True)
    )
  )
)
Epoch: 00, Loss: 1.8518, Train: 27.78%, Valid: 26.51%, Test: 26.55%, Time: 0.5919
Epoch: 01, Loss: 1.6331, Train: 29.58%, Valid: 28.03%, Test: 28.07%, Time: 0.5550
Epoch: 02, Loss: 1.5493, Train: 28.92%, Valid: 26.88%, Test: 26.92%, Time: 0.5707
Epoch: 03, Loss: 1.4824, Train: 31.25%, Valid: 28.09%, Test: 28.11%, Time: 0.5668
…
Namespace(SGD=False, adam=False, alpha=0.0, beta=1.0, cached=False, cpu=False, dataset='snap-patents', decay_rate=1.0, delta=0.0, directed=True, display_step=1, dropout=0.5, epochs=500, exponent=3.0, gamma=0.0, gat_heads=8, gcn2_alpha=0.1, gpr_alpha=0.1, hidden_channels=128, hops=1, inner_activation=False, inner_dropout=False, jk_type='max', link_init_layers_A=1, link_init_layers_X=1, lp_alpha=0.1, lr=0.01, method='linkx', no_bn=False, norm_func_id=2, norm_layers=1, num_layers=3, num_mlp_layers=1, orders=1, orders_func_id=2, print_prop=False, rand_split=False, rocauc=False, runs=5, sampling=False, sub_dataset='', theta=0.5, train_prop=0.5, valid_prop=0.25, weight_decay=0.001)
num nodes 2923922 | num classes 5 | num node feats 269
MODEL: LINKX(
  (mlpA): MLP(
    (lins): ModuleList(
      (0): Linear(in_features=2923922, out_features=128, bias=True)
    )
    (bns): ModuleList()
  )
  (mlpX): MLP(
    (lins): ModuleList(
      (0): Linear(in_features=269, out_features=128, bias=True)
    )
    (bns): ModuleList()
  )
  (W): Linear(in_features=256, out_features=128, bias=True)
  (mlp_final): MLP(
    (lins): ModuleList(
      (0): Linear(in_features=128, out_features=128, bias=True)
      (1): Linear(in_features=128, out_features=128, bias=True)
      (2): Linear(in_features=128, out_features=5, bias=True)
    )
    (bns): ModuleList(
      (0): BatchNorm1d(128, eps=1e-05, momentum=0.1, affine=True, track_running_stats=True)
      (1): BatchNorm1d(128, eps=1e-05, momentum=0.1, affine=True, track_running_stats=True)
    )
  )
)
Epoch: 00, Loss: 1.8541, Train: 25.09%, Valid: 24.65%, Test: 24.64%, Time: 1.6704
Epoch: 01, Loss: 1.6838, Train: 30.35%, Valid: 28.24%, Test: 28.28%, Time: 1.5965
Epoch: 02, Loss: 1.5397, Train: 39.56%, Valid: 34.53%, Test: 34.56%, Time: 1.5925
Epoch: 03, Loss: 1.3183, Train: 47.65%, Valid: 40.31%, Test: 40.41%, Time: 1.6042
…
Namespace(SGD=False, adam=False, alpha=0.0, beta=1.0, cached=False, cpu=False, dataset='snap-patents', decay_rate=1.0, delta=0.0, directed=True, display_step=1, dropout=0.5, epochs=500, exponent=3.0, gamma=0.0, gat_heads=8, gcn2_alpha=0.1, gpr_alpha=0.1, hidden_channels=256, hops=1, inner_activation=False, inner_dropout=False, jk_type='max', link_init_layers_A=1, link_init_layers_X=1, lp_alpha=0.1, lr=0.01, method='linkx', no_bn=False, norm_func_id=2, norm_layers=1, num_layers=3, num_mlp_layers=1, orders=1, orders_func_id=2, print_prop=False, rand_split=False, rocauc=False, runs=5, sampling=False, sub_dataset='', theta=0.5, train_prop=0.5, valid_prop=0.25, weight_decay=0.001)
num nodes 2923922 | num classes 5 | num node feats 269
MODEL: LINKX(
  (mlpA): MLP(
    (lins): ModuleList(
      (0): Linear(in_features=2923922, out_features=256, bias=True)
    )
    (bns): ModuleList()
  )
  (mlpX): MLP(
    (lins): ModuleList(
      (0): Linear(in_features=269, out_features=256, bias=True)
    )
    (bns): ModuleList()
  )
  (W): Linear(in_features=512, out_features=256, bias=True)
  (mlp_final): MLP(
    (lins): ModuleList(
      (0): Linear(in_features=256, out_features=256, bias=True)
      (1): Linear(in_features=256, out_features=256, bias=True)
      (2): Linear(in_features=256, out_features=5, bias=True)
    )
    (bns): ModuleList(
      (0): BatchNorm1d(256, eps=1e-05, momentum=0.1, affine=True, track_running_stats=True)
      (1): BatchNorm1d(256, eps=1e-05, momentum=0.1, affine=True, track_running_stats=True)
    )
  )
)
Traceback (most recent call last):
  File "main.py", line 307, in <module>
    out = model(dataset)
  File "/usr/local/lib/python3.6/dist-packages/torch/nn/modules/module.py", line 1102, in _call_impl
    return forward_call(*input, **kwargs)
  File "/data/code/GNN-experiments/Non-Homophily-Large-Scale/models.py", line 756, in forward
…
