…
Namespace(SGD=False, adam=False, alpha=0.0, beta=1.0, cached=False, cpu=False, dataset='twitch-gamer', decay_rate=1.0, delta=0.0, directed=False, display_step=1, dropout=0.5, epochs=500, exponent=3.0, gamma=0.0, gat_heads=8, gcn2_alpha=0.1, gpr_alpha=0.1, hidden_channels=256, hops=1, inner_activation=False, inner_dropout=False, jk_type='max', link_init_layers_A=1, link_init_layers_X=1, lp_alpha=0.1, lr=0.01, method='linkx', no_bn=False, norm_func_id=2, norm_layers=1, num_layers=2, num_mlp_layers=1, orders=1, orders_func_id=2, print_prop=False, rand_split=False, rocauc=False, runs=5, sampling=False, sub_dataset='', theta=0.5, train_prop=0.5, valid_prop=0.25, weight_decay=0.001)
num nodes 168114 | num classes 2 | num node feats 7
MODEL: LINKX(
  (mlpA): MLP(
    (lins): ModuleList(
      (0): Linear(in_features=168114, out_features=256, bias=True)
    )
    (bns): ModuleList()
  )
  (mlpX): MLP(
    (lins): ModuleList(
      (0): Linear(in_features=7, out_features=256, bias=True)
    )
    (bns): ModuleList()
  )
  (W): Linear(in_features=512, out_features=256, bias=True)
  (mlp_final): MLP(
    (lins): ModuleList(
      (0): Linear(in_features=256, out_features=256, bias=True)
      (1): Linear(in_features=256, out_features=2, bias=True)
    )
    (bns): ModuleList(
      (0): BatchNorm1d(256, eps=1e-05, momentum=0.1, affine=True, track_running_stats=True)
    )
  )
)
Epoch: 00, Loss: 0.8121, Train: 57.77%, Valid: 57.65%, Test: 57.79%, Time: 1.3284
Epoch: 01, Loss: 1.1961, Train: 53.17%, Valid: 53.11%, Test: 53.26%, Time: 1.2593
Epoch: 02, Loss: 0.7705, Train: 62.94%, Valid: 60.56%, Test: 60.50%, Time: 1.2578
Epoch: 03, Loss: 0.6974, Train: 64.06%, Valid: 61.84%, Test: 61.85%, Time: 1.2573
…
Namespace(SGD=False, adam=False, alpha=0.0, beta=1.0, cached=False, cpu=False, dataset='twitch-gamer', decay_rate=1.0, delta=0.0, directed=False, display_step=1, dropout=0.5, epochs=500, exponent=3.0, gamma=0.0, gat_heads=8, gcn2_alpha=0.1, gpr_alpha=0.1, hidden_channels=128, hops=1, inner_activation=False, inner_dropout=False, jk_type='max', link_init_layers_A=1, link_init_layers_X=1, lp_alpha=0.1, lr=0.01, method='linkx', no_bn=False, norm_func_id=2, norm_layers=1, num_layers=2, num_mlp_layers=1, orders=1, orders_func_id=2, print_prop=False, rand_split=False, rocauc=False, runs=5, sampling=False, sub_dataset='', theta=0.5, train_prop=0.5, valid_prop=0.25, weight_decay=0.001)
num nodes 168114 | num classes 2 | num node feats 7
MODEL: LINKX(
  (mlpA): MLP(
    (lins): ModuleList(
      (0): Linear(in_features=168114, out_features=128, bias=True)
    )
    (bns): ModuleList()
  )
  (mlpX): MLP(
    (lins): ModuleList(
      (0): Linear(in_features=7, out_features=128, bias=True)
    )
    (bns): ModuleList()
  )
  (W): Linear(in_features=256, out_features=128, bias=True)
  (mlp_final): MLP(
    (lins): ModuleList(
      (0): Linear(in_features=128, out_features=128, bias=True)
      (1): Linear(in_features=128, out_features=2, bias=True)
    )
    (bns): ModuleList(
      (0): BatchNorm1d(128, eps=1e-05, momentum=0.1, affine=True, track_running_stats=True)
    )
  )
)
Epoch: 00, Loss: 0.7577, Train: 61.12%, Valid: 60.00%, Test: 60.22%, Time: 0.6665
Epoch: 01, Loss: 0.7815, Train: 53.80%, Valid: 53.30%, Test: 53.46%, Time: 0.6293
Epoch: 02, Loss: 0.6694, Train: 67.18%, Valid: 64.57%, Test: 64.48%, Time: 0.6225
Epoch: 03, Loss: 0.6392, Train: 67.81%, Valid: 64.87%, Test: 64.60%, Time: 0.6235
…
Namespace(SGD=False, adam=False, alpha=0.0, beta=1.0, cached=False, cpu=False, dataset='twitch-gamer', decay_rate=1.0, delta=0.0, directed=False, display_step=1, dropout=0.5, epochs=500, exponent=3.0, gamma=0.0, gat_heads=8, gcn2_alpha=0.1, gpr_alpha=0.1, hidden_channels=32, hops=1, inner_activation=False, inner_dropout=False, jk_type='max', link_init_layers_A=1, link_init_layers_X=1, lp_alpha=0.1, lr=0.01, method='linkx', no_bn=False, norm_func_id=2, norm_layers=1, num_layers=2, num_mlp_layers=1, orders=1, orders_func_id=2, print_prop=False, rand_split=False, rocauc=False, runs=5, sampling=False, sub_dataset='', theta=0.5, train_prop=0.5, valid_prop=0.25, weight_decay=0.001)
num nodes 168114 | num classes 2 | num node feats 7
MODEL: LINKX(
  (mlpA): MLP(
    (lins): ModuleList(
      (0): Linear(in_features=168114, out_features=32, bias=True)
    )
    (bns): ModuleList()
  )
  (mlpX): MLP(
    (lins): ModuleList(
      (0): Linear(in_features=7, out_features=32, bias=True)
    )
    (bns): ModuleList()
  )
  (W): Linear(in_features=64, out_features=32, bias=True)
  (mlp_final): MLP(
    (lins): ModuleList(
      (0): Linear(in_features=32, out_features=32, bias=True)
      (1): Linear(in_features=32, out_features=2, bias=True)
    )
    (bns): ModuleList(
      (0): BatchNorm1d(32, eps=1e-05, momentum=0.1, affine=True, track_running_stats=True)
    )
  )
)
Epoch: 00, Loss: 0.7823, Train: 60.68%, Valid: 59.78%, Test: 60.13%, Time: 0.2595
Epoch: 01, Loss: 0.6951, Train: 62.23%, Valid: 61.25%, Test: 61.01%, Time: 0.1689
Epoch: 02, Loss: 0.6588, Train: 64.90%, Valid: 62.78%, Test: 62.59%, Time: 0.1682
Epoch: 03, Loss: 0.6387, Train: 66.61%, Valid: 63.72%, Test: 63.69%, Time: 0.1686
…
Namespace(SGD=False, adam=False, alpha=0.0, beta=1.0, cached=False, cpu=False, dataset='twitch-gamer', decay_rate=1.0, delta=0.0, directed=False, display_step=1, dropout=0.5, epochs=500, exponent=3.0, gamma=0.0, gat_heads=8, gcn2_alpha=0.1, gpr_alpha=0.1, hidden_channels=16, hops=1, inner_activation=False, inner_dropout=False, jk_type='max', link_init_layers_A=1, link_init_layers_X=1, lp_alpha=0.1, lr=0.01, method='linkx', no_bn=False, norm_func_id=2, norm_layers=1, num_layers=2, num_mlp_layers=1, orders=1, orders_func_id=2, print_prop=False, rand_split=False, rocauc=False, runs=5, sampling=False, sub_dataset='', theta=0.5, train_prop=0.5, valid_prop=0.25, weight_decay=0.001)
num nodes 168114 | num classes 2 | num node feats 7
MODEL: LINKX(
  (mlpA): MLP(
    (lins): ModuleList(
      (0): Linear(in_features=168114, out_features=16, bias=True)
    )
    (bns): ModuleList()
  )
  (mlpX): MLP(
    (lins): ModuleList(
      (0): Linear(in_features=7, out_features=16, bias=True)
    )
    (bns): ModuleList()
  )
  (W): Linear(in_features=32, out_features=16, bias=True)
  (mlp_final): MLP(
    (lins): ModuleList(
      (0): Linear(in_features=16, out_features=16, bias=True)
      (1): Linear(in_features=16, out_features=2, bias=True)
    )
    (bns): ModuleList(
      (0): BatchNorm1d(16, eps=1e-05, momentum=0.1, affine=True, track_running_stats=True)
    )
  )
)
Epoch: 00, Loss: 0.7892, Train: 61.52%, Valid: 59.52%, Test: 59.16%, Time: 0.1437
Epoch: 01, Loss: 0.6978, Train: 64.80%, Valid: 62.45%, Test: 62.14%, Time: 0.1113
Epoch: 02, Loss: 0.6661, Train: 67.32%, Valid: 63.65%, Test: 63.36%, Time: 0.1091
Epoch: 03, Loss: 0.6451, Train: 69.14%, Valid: 64.49%, Test: 63.94%, Time: 0.1085
…
Namespace(SGD=False, adam=False, alpha=0.0, beta=1.0, cached=False, cpu=False, dataset='twitch-gamer', decay_rate=1.0, delta=0.0, directed=False, display_step=1, dropout=0.5, epochs=500, exponent=3.0, gamma=0.0, gat_heads=8, gcn2_alpha=0.1, gpr_alpha=0.1, hidden_channels=256, hops=1, inner_activation=False, inner_dropout=False, jk_type='max', link_init_layers_A=1, link_init_layers_X=1, lp_alpha=0.1, lr=0.01, method='linkx', no_bn=False, norm_func_id=2, norm_layers=1, num_layers=3, num_mlp_layers=1, orders=1, orders_func_id=2, print_prop=False, rand_split=False, rocauc=False, runs=5, sampling=False, sub_dataset='', theta=0.5, train_prop=0.5, valid_prop=0.25, weight_decay=0.001)
num nodes 168114 | num classes 2 | num node feats 7
MODEL: LINKX(
  (mlpA): MLP(
    (lins): ModuleList(
      (0): Linear(in_features=168114, out_features=256, bias=True)
    )
    (bns): ModuleList()
  )
  (mlpX): MLP(
    (lins): ModuleList(
      (0): Linear(in_features=7, out_features=256, bias=True)
    )
    (bns): ModuleList()
  )
  (W): Linear(in_features=512, out_features=256, bias=True)
  (mlp_final): MLP(
    (lins): ModuleList(
      (0): Linear(in_features=256, out_features=256, bias=True)
      (1): Linear(in_features=256, out_features=256, bias=True)
      (2): Linear(in_features=256, out_features=2, bias=True)
    )
    (bns): ModuleList(
      (0): BatchNorm1d(256, eps=1e-05, momentum=0.1, affine=True, track_running_stats=True)
      (1): BatchNorm1d(256, eps=1e-05, momentum=0.1, affine=True, track_running_stats=True)
    )
  )
)
Epoch: 00, Loss: 0.8099, Train: 56.54%, Valid: 56.37%, Test: 56.28%, Time: 1.3951
Epoch: 01, Loss: 1.1468, Train: 47.41%, Valid: 47.84%, Test: 47.72%, Time: 1.2699
Epoch: 02, Loss: 1.5275, Train: 61.65%, Valid: 60.90%, Test: 60.72%, Time: 1.2694
Epoch: 03, Loss: 0.6987, Train: 54.83%, Valid: 54.54%, Test: 54.40%, Time: 1.2716
…
