…
Namespace(SGD=False, adam=False, alpha=0.0, beta=1.0, cached=False, cpu=False, dataset='arxiv-year', decay_rate=1.0, delta=0.0, directed=True, display_step=1, dropout=0.5, epochs=500, exponent=3.0, gamma=0.0, gat_heads=8, gcn2_alpha=0.1, gpr_alpha=0.1, hidden_channels=256, hops=1, inner_activation=False, inner_dropout=False, jk_type='max', link_init_layers_A=1, link_init_layers_X=1, lp_alpha=0.1, lr=0.01, method='linkx', no_bn=False, norm_func_id=2, norm_layers=1, num_layers=2, num_mlp_layers=1, orders=1, orders_func_id=2, print_prop=False, rand_split=False, rocauc=False, runs=5, sampling=False, sub_dataset='', theta=0.5, train_prop=0.5, valid_prop=0.25, weight_decay=0.001)
num nodes 169343 | num classes 5 | num node feats 128
MODEL: LINKX(
  (mlpA): MLP(
    (lins): ModuleList(
      (0): Linear(in_features=169343, out_features=256, bias=True)
    )
    (bns): ModuleList()
  )
  (mlpX): MLP(
    (lins): ModuleList(
      (0): Linear(in_features=128, out_features=256, bias=True)
    )
    (bns): ModuleList()
  )
  (W): Linear(in_features=512, out_features=256, bias=True)
  (mlp_final): MLP(
    (lins): ModuleList(
      (0): Linear(in_features=256, out_features=256, bias=True)
      (1): Linear(in_features=256, out_features=5, bias=True)
    )
    (bns): ModuleList(
      (0): BatchNorm1d(256, eps=1e-05, momentum=0.1, affine=True, track_running_stats=True)
    )
  )
)
Epoch: 00, Loss: 1.7892, Train: 29.20%, Valid: 29.02%, Test: 29.36%, Time: 0.2445
Epoch: 01, Loss: 1.6305, Train: 43.15%, Valid: 37.82%, Test: 38.27%, Time: 0.2265
Epoch: 02, Loss: 1.4279, Train: 45.89%, Valid: 39.26%, Test: 39.72%, Time: 0.2271
Epoch: 03, Loss: 1.1606, Train: 42.36%, Valid: 33.99%, Test: 34.27%, Time: 0.2273
…
Namespace(SGD=False, adam=False, alpha=0.0, beta=1.0, cached=False, cpu=False, dataset='arxiv-year', decay_rate=1.0, delta=0.0, directed=True, display_step=1, dropout=0.5, epochs=500, exponent=3.0, gamma=0.0, gat_heads=8, gcn2_alpha=0.1, gpr_alpha=0.1, hidden_channels=128, hops=1, inner_activation=False, inner_dropout=False, jk_type='max', link_init_layers_A=1, link_init_layers_X=1, lp_alpha=0.1, lr=0.01, method='linkx', no_bn=False, norm_func_id=2, norm_layers=1, num_layers=2, num_mlp_layers=1, orders=1, orders_func_id=2, print_prop=False, rand_split=False, rocauc=False, runs=5, sampling=False, sub_dataset='', theta=0.5, train_prop=0.5, valid_prop=0.25, weight_decay=0.001)
num nodes 169343 | num classes 5 | num node feats 128
MODEL: LINKX(
  (mlpA): MLP(
    (lins): ModuleList(
      (0): Linear(in_features=169343, out_features=128, bias=True)
    )
    (bns): ModuleList()
  )
  (mlpX): MLP(
    (lins): ModuleList(
      (0): Linear(in_features=128, out_features=128, bias=True)
    )
    (bns): ModuleList()
  )
  (W): Linear(in_features=256, out_features=128, bias=True)
  (mlp_final): MLP(
    (lins): ModuleList(
      (0): Linear(in_features=128, out_features=128, bias=True)
      (1): Linear(in_features=128, out_features=5, bias=True)
    )
    (bns): ModuleList(
      (0): BatchNorm1d(128, eps=1e-05, momentum=0.1, affine=True, track_running_stats=True)
    )
  )
)
Epoch: 00, Loss: 1.7930, Train: 33.16%, Valid: 31.31%, Test: 32.30%, Time: 0.1446
Epoch: 01, Loss: 1.5347, Train: 39.58%, Valid: 34.84%, Test: 35.59%, Time: 0.1094
Epoch: 02, Loss: 1.2598, Train: 32.94%, Valid: 31.33%, Test: 31.55%, Time: 0.1098
Epoch: 03, Loss: 1.1319, Train: 47.22%, Valid: 39.89%, Test: 40.64%, Time: 0.1115
…
Namespace(SGD=False, adam=False, alpha=0.0, beta=1.0, cached=False, cpu=False, dataset='arxiv-year', decay_rate=1.0, delta=0.0, directed=True, display_step=1, dropout=0.5, epochs=500, exponent=3.0, gamma=0.0, gat_heads=8, gcn2_alpha=0.1, gpr_alpha=0.1, hidden_channels=32, hops=1, inner_activation=False, inner_dropout=False, jk_type='max', link_init_layers_A=1, link_init_layers_X=1, lp_alpha=0.1, lr=0.01, method='linkx', no_bn=False, norm_func_id=2, norm_layers=1, num_layers=2, num_mlp_layers=1, orders=1, orders_func_id=2, print_prop=False, rand_split=False, rocauc=False, runs=5, sampling=False, sub_dataset='', theta=0.5, train_prop=0.5, valid_prop=0.25, weight_decay=0.001)
num nodes 169343 | num classes 5 | num node feats 128
MODEL: LINKX(
  (mlpA): MLP(
    (lins): ModuleList(
      (0): Linear(in_features=169343, out_features=32, bias=True)
    )
    (bns): ModuleList()
  )
  (mlpX): MLP(
    (lins): ModuleList(
      (0): Linear(in_features=128, out_features=32, bias=True)
    )
    (bns): ModuleList()
  )
  (W): Linear(in_features=64, out_features=32, bias=True)
  (mlp_final): MLP(
    (lins): ModuleList(
      (0): Linear(in_features=32, out_features=32, bias=True)
      (1): Linear(in_features=32, out_features=5, bias=True)
    )
    (bns): ModuleList(
      (0): BatchNorm1d(32, eps=1e-05, momentum=0.1, affine=True, track_running_stats=True)
    )
  )
)
Epoch: 00, Loss: 1.7792, Train: 24.14%, Valid: 22.20%, Test: 22.35%, Time: 0.1254
Epoch: 01, Loss: 1.5629, Train: 25.49%, Valid: 22.16%, Test: 22.11%, Time: 0.0366
Epoch: 02, Loss: 1.4021, Train: 31.05%, Valid: 26.86%, Test: 27.54%, Time: 0.0359
Epoch: 03, Loss: 1.2934, Train: 33.59%, Valid: 29.19%, Test: 30.12%, Time: 0.0357
…
Namespace(SGD=False, adam=False, alpha=0.0, beta=1.0, cached=False, cpu=False, dataset='arxiv-year', decay_rate=1.0, delta=0.0, directed=True, display_step=1, dropout=0.5, epochs=500, exponent=3.0, gamma=0.0, gat_heads=8, gcn2_alpha=0.1, gpr_alpha=0.1, hidden_channels=16, hops=1, inner_activation=False, inner_dropout=False, jk_type='max', link_init_layers_A=1, link_init_layers_X=1, lp_alpha=0.1, lr=0.01, method='linkx', no_bn=False, norm_func_id=2, norm_layers=1, num_layers=2, num_mlp_layers=1, orders=1, orders_func_id=2, print_prop=False, rand_split=False, rocauc=False, runs=5, sampling=False, sub_dataset='', theta=0.5, train_prop=0.5, valid_prop=0.25, weight_decay=0.001)
num nodes 169343 | num classes 5 | num node feats 128
MODEL: LINKX(
  (mlpA): MLP(
    (lins): ModuleList(
      (0): Linear(in_features=169343, out_features=16, bias=True)
    )
    (bns): ModuleList()
  )
  (mlpX): MLP(
    (lins): ModuleList(
      (0): Linear(in_features=128, out_features=16, bias=True)
    )
    (bns): ModuleList()
  )
  (W): Linear(in_features=32, out_features=16, bias=True)
  (mlp_final): MLP(
    (lins): ModuleList(
      (0): Linear(in_features=16, out_features=16, bias=True)
      (1): Linear(in_features=16, out_features=5, bias=True)
    )
    (bns): ModuleList(
      (0): BatchNorm1d(16, eps=1e-05, momentum=0.1, affine=True, track_running_stats=True)
    )
  )
)
Epoch: 00, Loss: 1.7941, Train: 22.20%, Valid: 22.18%, Test: 22.79%, Time: 0.0397
Epoch: 01, Loss: 1.5547, Train: 23.17%, Valid: 22.93%, Test: 23.57%, Time: 0.0478
Epoch: 02, Loss: 1.4388, Train: 31.90%, Valid: 29.45%, Test: 30.31%, Time: 0.0252
Epoch: 03, Loss: 1.3823, Train: 40.46%, Valid: 34.44%, Test: 35.44%, Time: 0.0252
…
Namespace(SGD=False, adam=False, alpha=0.0, beta=1.0, cached=False, cpu=False, dataset='arxiv-year', decay_rate=1.0, delta=0.0, directed=True, display_step=1, dropout=0.5, epochs=500, exponent=3.0, gamma=0.0, gat_heads=8, gcn2_alpha=0.1, gpr_alpha=0.1, hidden_channels=256, hops=1, inner_activation=False, inner_dropout=False, jk_type='max', link_init_layers_A=1, link_init_layers_X=1, lp_alpha=0.1, lr=0.01, method='linkx', no_bn=False, norm_func_id=2, norm_layers=1, num_layers=3, num_mlp_layers=1, orders=1, orders_func_id=2, print_prop=False, rand_split=False, rocauc=False, runs=5, sampling=False, sub_dataset='', theta=0.5, train_prop=0.5, valid_prop=0.25, weight_decay=0.001)
num nodes 169343 | num classes 5 | num node feats 128
MODEL: LINKX(
  (mlpA): MLP(
    (lins): ModuleList(
      (0): Linear(in_features=169343, out_features=256, bias=True)
    )
    (bns): ModuleList()
  )
  (mlpX): MLP(
    (lins): ModuleList(
      (0): Linear(in_features=128, out_features=256, bias=True)
    )
    (bns): ModuleList()
  )
  (W): Linear(in_features=512, out_features=256, bias=True)
  (mlp_final): MLP(
    (lins): ModuleList(
      (0): Linear(in_features=256, out_features=256, bias=True)
      (1): Linear(in_features=256, out_features=256, bias=True)
      (2): Linear(in_features=256, out_features=5, bias=True)
    )
    (bns): ModuleList(
      (0): BatchNorm1d(256, eps=1e-05, momentum=0.1, affine=True, track_running_stats=True)
      (1): BatchNorm1d(256, eps=1e-05, momentum=0.1, affine=True, track_running_stats=True)
    )
  )
)
Epoch: 00, Loss: 1.8264, Train: 23.62%, Valid: 23.78%, Test: 23.65%, Time: 0.2536
Epoch: 01, Loss: 1.8343, Train: 28.72%, Valid: 28.55%, Test: 28.83%, Time: 0.2397
Epoch: 02, Loss: 1.9973, Train: 29.20%, Valid: 28.94%, Test: 29.18%, Time: 0.2380
Epoch: 03, Loss: 1.3728, Train: 27.73%, Valid: 26.87%, Test: 26.98%, Time: 0.2398
…
Namespace(SGD=False, adam=False, alpha=0.0, beta=1.0, cached=False, cpu=False, dataset='arxiv-year', decay_rate=1.0, delta=0.0, directed=True, display_step=1, dropout=0.5, epochs=500, exponent=3.0, gamma=0.0, gat_heads=8, gcn2_alpha=0.1, gpr_alpha=0.1, hidden_channels=128, hops=1, inner_activation=False, inner_dropout=False, jk_type='max', link_init_layers_A=1, link_init_layers_X=1, lp_alpha=0.1, lr=0.01, method='linkx', no_bn=False, norm_func_id=2, norm_layers=1, num_layers=3, num_mlp_layers=1, orders=1, orders_func_id=2, print_prop=False, rand_split=False, rocauc=False, runs=5, sampling=False, sub_dataset='', theta=0.5, train_prop=0.5, valid_prop=0.25, weight_decay=0.001)
num nodes 169343 | num classes 5 | num node feats 128
MODEL: LINKX(
  (mlpA): MLP(
    (lins): ModuleList(
      (0): Linear(in_features=169343, out_features=128, bias=True)
    )
    (bns): ModuleList()
  )
  (mlpX): MLP(
    (lins): ModuleList(
      (0): Linear(in_features=128, out_features=128, bias=True)
    )
    (bns): ModuleList()
  )
  (W): Linear(in_features=256, out_features=128, bias=True)
  (mlp_final): MLP(
    (lins): ModuleList(
      (0): Linear(in_features=128, out_features=128, bias=True)
      (1): Linear(in_features=128, out_features=128, bias=True)
      (2): Linear(in_features=128, out_features=5, bias=True)
    )
    (bns): ModuleList(
      (0): BatchNorm1d(128, eps=1e-05, momentum=0.1, affine=True, track_running_stats=True)
      (1): BatchNorm1d(128, eps=1e-05, momentum=0.1, affine=True, track_running_stats=True)
    )
  )
)
Epoch: 00, Loss: 1.8481, Train: 22.21%, Valid: 22.20%, Test: 22.77%, Time: 0.1333
Epoch: 01, Loss: 1.6792, Train: 33.88%, Valid: 32.49%, Test: 33.26%, Time: 0.1146
Epoch: 02, Loss: 1.4441, Train: 39.09%, Valid: 36.49%, Test: 37.19%, Time: 0.1145
Epoch: 03, Loss: 1.3343, Train: 44.26%, Valid: 39.56%, Test: 40.19%, Time: 0.1145
…
Namespace(SGD=False, adam=False, alpha=0.0, beta=1.0, cached=False, cpu=False, dataset='arxiv-year', decay_rate=1.0, delta=0.0, directed=True, display_step=1, dropout=0.5, epochs=500, exponent=3.0, gamma=0.0, gat_heads=8, gcn2_alpha=0.1, gpr_alpha=0.1, hidden_channels=32, hops=1, inner_activation=False, inner_dropout=False, jk_type='max', link_init_layers_A=1, link_init_layers_X=1, lp_alpha=0.1, lr=0.01, method='linkx', no_bn=False, norm_func_id=2, norm_layers=1, num_layers=3, num_mlp_layers=1, orders=1, orders_func_id=2, print_prop=False, rand_split=False, rocauc=False, runs=5, sampling=False, sub_dataset='', theta=0.5, train_prop=0.5, valid_prop=0.25, weight_decay=0.001)
num nodes 169343 | num classes 5 | num node feats 128
MODEL: LINKX(
  (mlpA): MLP(
    (lins): ModuleList(
      (0): Linear(in_features=169343, out_features=32, bias=True)
    )
    (bns): ModuleList()
  )
  (mlpX): MLP(
    (lins): ModuleList(
      (0): Linear(in_features=128, out_features=32, bias=True)
    )
    (bns): ModuleList()
  )
  (W): Linear(in_features=64, out_features=32, bias=True)
  (mlp_final): MLP(
    (lins): ModuleList(
      (0): Linear(in_features=32, out_features=32, bias=True)
      (1): Linear(in_features=32, out_features=32, bias=True)
      (2): Linear(in_features=32, out_features=5, bias=True)
    )
    (bns): ModuleList(
      (0): BatchNorm1d(32, eps=1e-05, momentum=0.1, affine=True, track_running_stats=True)
      (1): BatchNorm1d(32, eps=1e-05, momentum=0.1, affine=True, track_running_stats=True)
    )
  )
)
Epoch: 00, Loss: 1.8097, Train: 18.96%, Valid: 18.92%, Test: 18.68%, Time: 0.0424
Epoch: 01, Loss: 1.6677, Train: 19.25%, Valid: 19.15%, Test: 18.90%, Time: 0.0356
Epoch: 02, Loss: 1.5486, Train: 31.54%, Valid: 30.37%, Test: 30.50%, Time: 0.0355
Epoch: 03, Loss: 1.4641, Train: 39.72%, Valid: 37.35%, Test: 37.49%, Time: 0.0357
…
Namespace(SGD=False, adam=False, alpha=0.0, beta=1.0, cached=False, cpu=False, dataset='arxiv-year', decay_rate=1.0, delta=0.0, directed=True, display_step=1, dropout=0.5, epochs=500, exponent=3.0, gamma=0.0, gat_heads=8, gcn2_alpha=0.1, gpr_alpha=0.1, hidden_channels=16, hops=1, inner_activation=False, inner_dropout=False, jk_type='max', link_init_layers_A=1, link_init_layers_X=1, lp_alpha=0.1, lr=0.01, method='linkx', no_bn=False, norm_func_id=2, norm_layers=1, num_layers=3, num_mlp_layers=1, orders=1, orders_func_id=2, print_prop=False, rand_split=False, rocauc=False, runs=5, sampling=False, sub_dataset='', theta=0.5, train_prop=0.5, valid_prop=0.25, weight_decay=0.001)
num nodes 169343 | num classes 5 | num node feats 128
MODEL: LINKX(
  (mlpA): MLP(
    (lins): ModuleList(
      (0): Linear(in_features=169343, out_features=16, bias=True)
    )
    (bns): ModuleList()
  )
  (mlpX): MLP(
    (lins): ModuleList(
      (0): Linear(in_features=128, out_features=16, bias=True)
    )
    (bns): ModuleList()
  )
  (W): Linear(in_features=32, out_features=16, bias=True)
  (mlp_final): MLP(
    (lins): ModuleList(
      (0): Linear(in_features=16, out_features=16, bias=True)
      (1): Linear(in_features=16, out_features=16, bias=True)
      (2): Linear(in_features=16, out_features=5, bias=True)
    )
    (bns): ModuleList(
      (0): BatchNorm1d(16, eps=1e-05, momentum=0.1, affine=True, track_running_stats=True)
      (1): BatchNorm1d(16, eps=1e-05, momentum=0.1, affine=True, track_running_stats=True)
    )
  )
)
Epoch: 00, Loss: 1.8287, Train: 17.64%, Valid: 17.78%, Test: 17.32%, Time: 0.1025
Epoch: 01, Loss: 1.7406, Train: 17.65%, Valid: 17.78%, Test: 17.32%, Time: 0.0277
Epoch: 02, Loss: 1.6574, Train: 17.65%, Valid: 17.78%, Test: 17.33%, Time: 0.0264
Epoch: 03, Loss: 1.6203, Train: 17.75%, Valid: 17.84%, Test: 17.42%, Time: 0.0503
…
